notebooks/ogbl-collab:gcn:model.pt (torch, 134080 bytes, 4 tensors)

convs.0.bias f4 [128]
00000000: 303b f7bb 421a 4f3b e520 333c e349 25bc
00000010: d857 bb3d 9955 b3bb 1dfd 9b3c 1915 913b
00000020: 9ed6 003e 197f c9bc f00d 083e 0000 0000
00000030: cc61 3cbd 678c 363e 9f12 323b 4b30 93bb
00000040: 2eb4 f43d d95d 6a3b a65b abbc 24e4 acbc
00000050: d8ac e53b 6420 89bc ead8 07bc cdc4 953d
00000060: 1ce0 10bc 6a52 71bc 2281 ad3d 57f3 a33c
00000070: 9d95 30bb e172 fdbb 641e e43d 64ed 4e3c
00000080: b7e7 89bc bcf7 aa3b 411c aebc 9544 413d
00000090: d804 e0bc f00c 5dbd 179d ab3d 32b6 0fbd
000000a0: 5976 003a 12af 173b 0a45 8f3d 82a5 81b8
000000b0: 69df 2fbd ebf5 bcbc e42e f0bb 5524 183c
000000c0: bb78 27bc 3923 7a3d aa7b 153e 53fe 553c
000000d0: 7e5a 0ebc 402b a5bb a19e 22bc c0ab 8f3d
000000e0: 5f1d 75bc 62eb 9abc 0370 a6bc 8eef 8b3a
000000f0: 648f e93d 047e 56bc 5089 4c3d 12da 33bb
00000100: 3437 863d ef60 ad3c f3be d33c 88e8 80bc
00000110: 8664 1b3d 7098 8bbc 398d 16bd 87d0 76bc
00000120: c214 a63d 1cac 1a3c 8154 6ebb 5138 f43b
00000130: 45bc e73b 1404 24bc 58ac 90bc a60d 9fbc
00000140: 241b 6f3d ea68 6d3a 4149 63bc 61d2 143d
00000150: becc 68bc 192b cdbd 2f24 ee3b d83b fc3b
00000160: 21b9 83bc 801f e33c a550 c2bc 139e 303b
00000170: c2c4 123e ff73 f83c 390e 393b e27e 983c
00000180: 4006 1fbc 43d9 39bd b20f 023e a3d7 bb3a
00000190: f1b0 123e baa3 9eb8 854b d23d e681 893c
000001a0: f5f5 ecbc 2678 a13d bfe1 ecbb a6a3 d23c
000001b0: 9b75 4bbb 8c16 afbb 3d90 f63d 1ed2 6fbc
000001c0: ced7 cd3b daf7 bc3d 2064 9abc 1c87 e03c
000001d0: d53f dc3c 0f39 b6bc 6ee7 62bb 23d9 66bb
000001e0: c101 973c 5f42 ce3c 68ae 8abc ab57 723a
000001f0: be71 74bc 2e56 80bc 9c84 d93b 10a6 983c
-0.0075448975 0.0031601344 0.010933136 -0.010088417 0.09147614 -0.0054728505 0.019041592 0.004427564
0.1258187 -0.024596738 0.13286567 0.0 -0.045991704 0.17826997 0.0027171744 -0.004491841
0.11948429 0.0035761504 -0.020917725 -0.02110488 0.00700913 -0.016739078 -0.008291462 0.073129274
-0.008842494 -0.014729122 0.08471896 0.020013494 -0.0026944645 -0.007734642 0.11138609 0.0126298405
-0.016834123 0.0052175205 -0.021253707 0.047184546 -0.02734606 -0.053967416 0.08379572 -0.035085864
0.00049004477 0.0023145122 0.0699559 -6.1820276e-05 -0.04293767 -0.023066482 -0.0073298085 0.009286006
-0.0102216555 0.061068747 0.14597955 0.013061124 -0.008688567 -0.005040556 -0.009925515 0.070151806
-0.014960616 -0.018911067 -0.020317083 0.0010676251 0.11404303 -0.013091568 0.04993564 -0.0027443212
0.06553498 0.021164386 0.025847888 -0.01573588 0.037937663 -0.017040461 -0.036755774 -0.015064365
0.08109428 0.009440448 -0.0036366286 0.0074530025 0.007072004 -0.010010738 -0.017660305 -0.019415688
0.058375493 0.0009056466 -0.013872446 0.036333445 -0.014208971 -0.10017986 0.007267497 0.0076975636
-0.016079487 0.027724981 -0.023720095 0.0026949688 0.1433287 0.030328749 0.0028237237 0.01861519
-0.00970608 -0.045373213 0.127013 0.0014331233 0.1432531 -7.5645235e-05 0.102683105 0.016785573
-0.028925875 0.078842446 -0.0072290595 0.0257128 -0.003104544 -0.005343264 0.1203923 -0.014637498
0.0062818294 0.092269614 -0.018846571 0.027408175 0.026885906 -0.022244005 -0.0034622806 -0.0035224638
0.018433454 0.025178133 -0.016928867 0.0009244631 -0.014919696 -0.015666094 0.0066381227 0.018633872

convs.0.lin.weight f4 [128, 128]
00000000: e013 abbd 6673 a33d 266d a3bc df7c cf3e
00000010: 8288 63be a345 113e 218b 1fbe af1d 053e
00000020: fe63 d03d 0b31 283f c01c 6dbe 0a94 5d3d
00000030: 1772 633d 8986 92bf 7bcf 83bc 1ac9 82be
00000040: 0ae9 06be 0fcd 12bd 41cb 26be f617 91be
00000050: 3193 9f3d 724c 60bc 9652 ab3d 05a0 7cbd
00000060: 6781 acbe a9a4 9bbb ffb7 59be 780e a23c
00000070: f356 3b3a 8923 1bbe 7683 02be 19a2 7e3e
00000080: fb93 15bf 0d50 2cbd fb69 45bd e535 32be
00000090: b54e 13be 8a73 06bd 0470 4ebe 4ba5 53bd
000000a0: 0495 a43d c898 f23d be4e 4e3e 334e 503d
000000b0: 78a1 98be 8146 61bd a4fc 0b3e 3222 0fbb
000000c0: f26e d73d 33d0 afbe fc56 df3d 2142 aebe
000000d0: 993f 5f3e 75c2 88bc a1d9 93bd b7d0 d0bc
000000e0: 95ff c83d a804 8b3a 4aa7 883e 340e 0abf
000000f0: 9767 d73d 10c3 98be 8327 f7bd cf1a af3d
00000100: ec21 dfbc 845c 593e 917c 2f3e 620f f73d
00000110: bebe d9bd 4ad1 c6bd 427b 3b3e ecce dfbd
00000120: 1d7b 063e a379 17be 2c37 333d 0da3 ea3d
00000130: ae7c 723b c6e0 50bd 77e8 143f 6660 303e
00000140: 7ce9 243d eeee af3c bad6 0dbe c6e8 e73d
00000150: 3069 87bd e034 f93d 61c9 0e3e d69f 8c3e
00000160: 50fd 02bc e1d0 eabd 6d4b 133e 9e97 3e3d
00000170: fae3 183d 52ce f43d 345f 06be 6d65 59bd
00000180: 6579 44be 043f 0f3e f2b3 533e 3201 66be
00000190: b1fe 053e ba8c e43d 2ff6 1ebe f8f4 3b3e
000001a0: e8d4 213e 508b debc eb9b 53bd 7685 583e
000001b0: 1cf1 c53d 5687 e23d b23f a6bc 0162 0f3e
000001c0: 4465 2abe c570 b7bd e34b 14bd eb1e f0bd
000001d0: 697d 893d fe74 2ebf c0ed d23d e019 163e
000001e0: ae11 ecbd f42b 1a3d 0173 463d 601c b2bc
000001f0: 4999 7dba 9e96 233e 46dd b9bc 4a87 b83b
00000200: 4338 993d 9442 a13e 5cdb 70bd 8412 ae3e
00000210: 3dc7 45be 6bbb 0b3e 08b5 a1bd 1014 b3bd
00000220: 62c5 2b3e 9bf8 fdbd 2b37 083e fb18 c3bd
00000230: fef5 463e 8e00 f23d 1f21 563e 857b 20be
00000240: 8858 66bd 2722 c3bd b27c 193b cb17 fe3d
00000250: 4778 03be 391b 89bc d022 433c d823 a13d
00000260: 4f7a 20bd ecc7 99bd 58cc ccbd 3e13 04be
00000270: 203d 923e 9ff9 1cbe d152 023e 3751 80be
00000280: 3e6e a7be 49fa 94bd 452e 103e 45ff fdbc
00000290: 004c 0dbd 9774 c33e 339c 60be 2bb9 05bd
000002a0: e4b5 64bd 28b0 62bd 86d9 433e 445a 2dbf
000002b0: 01ea 37be 59a9 2d3e 0426 5bbe faae 01be
000002c0: 1ca1 48bc 1ad6 1c3e 0b56 2dbe 8240 a5bd
000002d0: cab3 df3e 5852 0ebd cbb2 6abe 6a22 58be
000002e0: e5c6 d5bc 881f 203e af48 4abd 54d6 163e
000002f0: b09b ad3d 3f57 d13d 39b0 f23d ce04 83be
00000300: 45d5 2ebe 377a 863d 91e5 1c3e 5a9a 393d
00000310: 36d7 923c 2cfe fcbd 1d5d c6bb e483 0e3e
00000320: 13f5 1c3d c25e b0bd 92bb f2bc 08c4 fbbd
00000330: 9c07 44bd e949 2cbc 1a4a 98be 3f88 1abd
00000340: c029 00be 10fc 3a3e 4c04 3fbd f6a4 2cbe
00000350: 2759 7abd 8d8d 24bd 762e 233e 7c0d 523e
00000360: a4ca d53c 210e d6bd 7b42 663d d046 9a3c
00000370: e51b a93d 7351 ad3b 1f84 743e 53eb a43d
00000380: faef 0ebe 8288 50bd bdf8 023e fb3f 873d
00000390: cd1a 593e 73db f6bd c2d0 4abd ead8 59bd
000003a0: 034e 45be 1a8a d33d 3c86 2c3d f6f4 2b3e
000003b0: c691 bd3a 5804 a2bc 048a 05be bf22 01be
000003c0: 4f5b 4c3e 96ba 22bd 26df 03be 43f5 da3d
000003d0: 678b 35be 88b7 923e c3f4 8a3e 47f4 98be
000003e0: 553f bb3b d065 86bd aa50 f33d 69c2 3ebe
000003f0: f2f8 16be 3f25 a03d f538 553e 640e d5bc
-0.083534 0.07980995 -0.019949507 0.40524957 -0.22220042 0.1418672 -0.15580417 0.12999605
0.10175322 0.65699834 -0.23155499 0.05409626 0.055528726 -1.1447307 -0.016090145 -0.25544053
-0.13174835 -0.03584009 -0.16288473 -0.28338593 0.077917464 -0.013690101 0.083653614 -0.061676044
-0.33692476 -0.0047498536 -0.21261595 0.01978229 0.00071464403 -0.15150274 -0.12745461 0.24866523
-0.58428925 -0.04206853 -0.048196774 -0.17403372 -0.14385493 -0.03282503 -0.20159918 -0.051671308
0.08036235 0.11845547 0.20147225 0.050855827 -0.2981069 -0.05499888 0.13670594 -0.002184045
0.10519208 -0.3433853 0.10905263 -0.34034827 0.21801604 -0.016694287 -0.07219244 -0.025490148
0.098143734 0.0010606246 0.2669013 -0.5392792 0.10517805 -0.2983632 -0.12068083 0.08550035
-0.027237855 0.21226698 0.17137362 0.12063481 -0.10632084 -0.097078875 0.18308738 -0.10928139
0.13132901 -0.14792494 0.043753788 0.11456881 0.0037000584 -0.05099561 0.58167213 0.17224273
0.04026173 0.021476235 -0.13851443 0.11323695 -0.0661186 0.12168288 0.13944007 0.27465695
-0.007994965 -0.11465622 0.14384241 0.046531312 0.03732679 0.11953415 -0.13122255 -0.053075243
-0.19186933 0.13988882 0.20674112 -0.22461393 0.13085438 0.11159654 -0.15523599 0.18355167
0.15803874 -0.027166039 -0.051662367 0.21144661 0.096651286 0.110609695 -0.020294044 0.1400223
-0.16640192 -0.08957056 -0.036205184 -0.11724647 0.06713373 -0.68147266 0.102992535 0.14658308
-0.1152681 0.037639573 0.04844952 -0.021742046 -0.00096740254 0.15975425 -0.02268852 0.005631362
0.07481434 0.31496108 -0.058802947 0.339985 -0.19314285 0.13645713 -0.07895857 -0.08744061
0.16774514 -0.12400933 0.13302295 -0.09526249 0.19429776 0.11816512 0.20911072 -0.15672119
-0.056236774 -0.095279984 0.0023420271 0.12406882 -0.12838851 -0.016736614 0.011910155 0.07868165
-0.039179143 -0.07508835 -0.09999913 -0.12897965 0.2856226 -0.15329598 0.12726904 -0.25061962
-0.32701296 -0.072743006 0.1408015 -0.031005511 -0.034496307 0.38174888 -0.21934585 -0.032647293
-0.055837527 -0.055343777 0.19125947 -0.6771586 -0.17960359 0.16959132 -0.2140122 -0.12664405
-0.012245443 0.15316048 -0.16927354 -0.080689445 0.43691856 -0.034746498 -0.22919767 -0.21106878
-0.026095817 0.15637028 -0.049385723 0.14730197 0.08476961 0.10221719 0.11850018 -0.25589603
-0.17073543 0.065662794 0.15321948 0.045313217 0.017924886 -0.12353167 -0.0060535804 0.139175
0.03831966 -0.086118236 -0.029630456 -0.12293249 -0.04785882 -0.010515668 -0.29744035 -0.03772759
-0.12515926 0.18260217 -0.046634957 -0.16859803 -0.06112018 -0.040174056 0.15935692 0.20512956
0.026097603 -0.104519136 0.056215744 0.018832594 0.082572736 0.0052892505 0.23878525 0.08052697
-0.13958731 -0.050911434 0.12790199 0.06604 0.2120163 -0.12053575 -0.049515493 -0.05318538
-0.1926804 0.10329075 0.042120203 0.16792664 0.0014463 -0.019777462 -0.1304093 -0.12610911
0.19956706 -0.039728723 -0.12878093 0.10691311 -0.17728959 0.28655648 0.27139863 -0.2987387
0.005714337 -0.06562388 0.1188062 -0.18628849 -0.14743403 0.07819604 0.20822509 -0.026007839

convs.1.bias f4 [128]
00000000: 4aa5 853d bec2 b9bc d870 ab3c 2289 13bd
00000010: 827f 06bd d016 ab3d 47be e33d a7bc 553c
00000020: e2f1 23bd 6b79 ef3c 4134 56bd e6bf de3b
00000030: 1a23 8cbd 0e00 ab3c 1e48 70be ea1b a63d
00000040: 3b0f aa3c 43e4 3e3d eeb0 5f3c 06d3 03bc
00000050: 08ac a53d ab5c 023e 7e1d 343b cebf 763c
00000060: df02 483d d563 79bd 1d66 403e 9847 16be
00000070: ba3f 15be d5e2 80be b2e4 1a3d 70a8 5ebd
00000080: ae7e 633d 9fe5 153e b24f d5bd f575 26bd
00000090: ba4f 0f3c b76d 99bb 9a62 2cbc 5a80 b43d
000000a0: 71a6 1e3e 3cdb 9abd b089 25be 678e c73c
000000b0: 18fc 10be 2b5d ab3c 0de7 97bd 016c 923c
000000c0: 1001 093e b6ea ca3d 28c3 e6bd 12bc 573c
000000d0: aa12 f03d b0ee 00bb 7790 41bd 3a0b a7bd
000000e0: c65e 9a3d d363 593d e75f 1abe 156c b0bf
000000f0: 6a4a 8e3d 0064 67bb afb8 cd3d f21c 87bb
00000100: 5fe5 8f3d 984d d5bc 002d 43bc 6762 49bd
00000110: fab3 0ebd 0938 823d c3ad cfbc c631 713c
00000120: c45c 0d3e 295b f0bc 9acc b0ba ec32 70bd
00000130: 675c 8cbd c74e e53d b879 903d 9080 823c
00000140: c48c adbc e184 86bd c0b7 143d e275 bcbd
00000150: 809f 8d3d fca5 a2b9 c882 003d 7853 74bd
00000160: cad9 debd 4cd1 cfbc b4f4 c13d a216 25bc
00000170: 973a 953c 491c 923d 9166 6bbc d2d2 b2bc
00000180: fd3a 143d 317f 8ebc ad2e 9a3d 0b15 4ebd
00000190: adee acbb 4694 983e bdc2 703c a1db 12bd
000001a0: d912 00bd 0dda 4f3d 9fcb 2a3e f293 6fbd
000001b0: eedc f23c 3744 0e3e 5558 9bbd 3d38 473d
000001c0: 0bf1 e7bd 0a7d 3e3d ca37 43bc 0129 cfbc
000001d0: 10a5 ce3d 2483 b9be bb32 533d cbdc 2c3e
000001e0: 9c45 b33b 7ff7 28bd 738c 083c 364e 5ebd
000001f0: 2728 8fbd 0b13 0a3e 622d d23c c2c9 da3e
0.06525667 -0.022675868 0.020927832 -0.036019452 -0.032836445 0.083539605 0.11120277 0.0130454665
-0.0400256 0.029232701 -0.052295927 0.0067977784 -0.068426326 0.02087405 -0.2346501 0.08110793
0.020759216 0.046604406 0.013653023 -0.008045917 0.08089453 0.12730663 0.00274834 0.015060378
0.048830863 -0.060886223 0.18788953 -0.14675748 -0.14575091 -0.2517306 0.037815757 -0.054359853
0.055540733 0.14638375 -0.10415591 -0.040639836 0.008747036 -0.0046822685 -0.010521555 0.088135436
0.1549318 -0.07561347 -0.16165805 0.024359895 -0.14158666 0.02091845 -0.07417116 0.017873766
0.13379312 0.09908049 -0.11267692 0.013167398 0.1172231 -0.001967352 -0.047256913 -0.08156438
0.07537608 0.053073715 -0.15075646 -1.3782984 0.06947787 -0.0035307407 0.10044991 -0.0041233236
0.07026171 -0.026037976 -0.011912584 -0.04916611 -0.034839608 0.06358344 -0.02535141 0.01472134
0.13804919 -0.029340344 -0.001348871 -0.058642313 -0.06853562 0.11196666 0.07054466 0.015930444
-0.021185286 -0.065683134 0.03630805 -0.09202172 0.06915188 -0.00031022716 0.031374723 -0.059649915
-0.10881384 -0.025368355 0.094705015 -0.010076197 0.018216414 0.07134301 -0.014367715 -0.021829043
0.036189068 -0.017394634 0.07528434 -0.050313037 -0.005277476 0.29800624 0.014694867 -0.035853986
-0.031267975 0.05074506 0.16679238 -0.0584907 0.029646363 0.1389321 -0.075852074 0.048637617
-0.11325272 0.046505965 -0.011915157 -0.025288107 0.10090077 -0.36232865 0.051562052 0.16881101
0.0054709446 -0.041251656 0.008334267 -0.054273807 -0.0699008 0.13483827 0.025656406 0.42732054

convs.1.lin.weight f4 [128, 128]
00000000: b2d3 2a3e 27fd afbd ecba 57be ce0e 69bc
00000010: 0190 75bd 1db4 403d 4070 3c3d 933b f3bd
00000020: 7f4b 5a3c 54bc 3ebe a7ad 363e 55f9 13be
00000030: 46f4 043d 1841 2c3d cc86 343d eb8d 78be
00000040: 7aa8 b73d 701e 73be bf7e 30bc 4f0c b4bd
00000050: 8b05 87be a80b 73be bf26 06bd 9ab1 9f3d
00000060: 291f 5fbe d515 5c3d 3f56 933d 9f6f 3f3d
00000070: a857 933c a73b db3c ac27 fb3d 731e a1bd
00000080: 5bbc 36be 040b 0ebe 8b82 4a3e a01e b83d
00000090: 1ef7 ea3d ade5 10be 7e00 1cbd 4615 41bd
000000a0: 0228 f2bd e96b 7bbd 703c fb3c fda3 1abe
000000b0: 7c3b 973c a238 d13d 66a6 78bd ba2c de3d
000000c0: e8c8 fa3d 7a64 6bbc c870 b7bd 3f3c eabc
000000d0: 1090 963c 5894 0ebe 57d9 56be a407 443e
000000e0: 204a 783d 749f 813d 3a7f 46be ac27 213e
000000f0: a9b3 09be 2078 e93d 7558 6cbd d0f2 3c3d
00000100: d48a 09be 5144 263c a354 1bbe 5bfb 0abe
00000110: 9c87 de3d 99b9 ec3d 27a2 87bd ee66 d6bd
00000120: f95e 3ebd c076 ad3d be1e 2bbe d826 0abe
00000130: d03e 65bd 3405 eabd 3eaa 52bd a697 d43c
00000140: b7c0 9d3d 8c52 823c 8e0c 9abd 8e07 32be
00000150: c58b ae3b f9c8 8ebc 4f8d 9e3d 340a 063c
00000160: 375a 3a3e 12b0 2a3e 7646 e3bd 2565 4cbe
00000170: 6c41 8bbd c596 ac3d 598b afbd 2ea4 e5bd
00000180: 9225 1abe f4c5 24be c04a 2e3e bdfe 403e
00000190: 8e62 aabd ae78 b7bd af35 e83d 50b2 9ebd
000001a0: f5ab 0bbe cf6f 043e 8365 2b3d 455c 15bd
000001b0: b994 7b3a 524b 40be c015 133e eb38 46be
000001c0: 938a 35be 2d69 9dbd c887 08be 683e f8bd
000001d0: e419 83bd a170 ff3d 4084 62bc 53be e03d
000001e0: 5f53 9cbd b4a7 043e a04f 83be 75c0 58be
000001f0: 92e6 6fbe 46eb 343d d5e6 393d 0e61 1abe
00000200: f764 923d 5eb4 85be d130 403b 64a9 a93d
00000210: f800 2f3e 272b 013d 35a7 53be f4b3 12be
00000220: 63e8 103e eb4c 08bf 9a89 0abe 5a87 0c3d
00000230: c2f3 febd 5957 16be ea71 24be 1b40 363e
00000240: ccf5 373d 2e5a 86be dce1 f1bd f873 96be
00000250: 9fac 9b3d 3133 193f 5777 d0bd 1870 8cbd
00000260: 0818 33bd 0d51 3fbe 4b39 383d 8a6c 073e
00000270: 0293 7cbe b51b 773e ae32 85be ff1a 0b3f
00000280: 665f a53d 108f 69bd 6837 abbe c159 f0bd
00000290: 988d ba3e fe50 5c3d cdec 273e 9853 183f
000002a0: ca49 d23e ccdd 743e 4300 58bd c4ed 5dbe
000002b0: f546 a73e feb8 78be d492 0b3d 94b1 0f3c
000002c0: c215 99be 2517 1e3d abf9 d1bd 2540 1abe
000002d0: 60ed 053e b39f f23d 8faa 3d3e cf8b 0c3e
000002e0: 4db3 5fbe 4543 c73e 0dcf 06bf 42a7 bcbd
000002f0: 0e01 7d3e f1aa 5abd 3074 b33d b2f0 4d3e
00000300: c846 603e 7c92 473e 88e7 7abe 8f66 eebc
00000310: abbe 7e3e 5f4e 3cbd 35c0 5a3e b963 8e3d
00000320: 9e76 353e 42cf 373e 19a3 3f3e 1774 873e
00000330: 8b1c 063f 4ef3 1dbf 3b26 28be f7b4 0c3f
00000340: c4a7 443e 3dae 5bbd 3deb ef3c 0b7d 13bd
00000350: 10e1 133d 684d 133e 1b9d 323e 42eb 1c3d
00000360: 82b0 efbe 0694 1dbe e080 a8be f25b e63c
00000370: 976f 06be 11ab 6cbe 4be4 8e3e 5a06 033c
00000380: 14e4 d13e 4af1 02be d89e f1bd f868 a8bd
00000390: d7bc 1ebe 9bb2 48bd 8cfe 903d 62a4 65be
000003a0: 8bc6 1a3e 8ea4 103d cd99 b3be 7263 e6bd
000003b0: 3157 cb3d 2f4c 143f f703 9dbd 19a4 543e
000003c0: 719b 4d3e b350 5d3d 6735 c1bc e2af c7bd
000003d0: a68a 4cbe 54d6 93be 7008 873e e81a 5b3e
000003e0: f408 0ebe 0be9 d0be 4b4c c3ba 4e39 1fbf
000003f0: d0fa 3c3d 232b a2be 6bb8 3dbe b9d9 553d
0.16682318 -0.08593207 -0.21067399 -0.014224721 -0.059951786 0.04704677 0.046005487 -0.11876597
0.013323664 -0.18626529 0.1783968 -0.14450581 0.03245952 0.042054266 0.044073865 -0.24272887
0.08967681 -0.2374208 -0.010772406 -0.0879141 -0.26371416 -0.23734915 -0.032751795 0.07797547
-0.2178923 0.05373176 0.071941845 0.04673731 0.017986134 0.026761843 0.12263426 -0.07867136
-0.1784529 -0.1387139 0.1977636 0.08990216 0.11472915 -0.14150114 -0.038086407 -0.04713943
-0.11824037 -0.061382208 0.030668467 -0.15101619 0.018460982 0.1021588 -0.060705565 0.10848375
0.12245351 -0.014367217 -0.08957058 -0.02859318 0.018379241 -0.13923776 -0.20981346 0.1914354
0.060617566 0.063292414 -0.1938447 0.1573779 -0.13447441 0.11399865 -0.057701547 0.04613
-0.13431865 0.010148124 -0.15169005 -0.13572447 0.10865709 0.115588374 -0.06622725 -0.10468851
-0.04647729 0.084699154 -0.16710946 -0.1349138 -0.055968106 -0.11426774 -0.051431887 0.025951218
0.07702773 0.015908502 -0.07521926 -0.17385694 0.0053267204 -0.017429816 0.07741796 0.008181144
0.18198477 0.16668728 -0.11097424 -0.19960459 -0.067995876 0.084271945 -0.085715 -0.112129554
-0.15053394 -0.16091138 0.17020702 0.18847175 -0.08319579 -0.08958565 0.11338364 -0.07748854
-0.13639815 0.12933277 0.041844856 -0.03646495 0.00095970515 -0.18778732 0.14363766 -0.1935765
-0.17728643 -0.07686076 -0.13333046 -0.12121278 -0.064014226 0.12472654 -0.013825476 0.109738015
-0.07633089 0.12954599 -0.25646687 -0.21167167 -0.234278 0.044169687 0.045386154 -0.15076086
0.07148164 -0.26114172 0.0029325972 0.08284262 0.17090213 0.031535294 -0.20669253 -0.14326459
0.14151148 -0.5324237 -0.13529053 0.03430877 -0.12448837 -0.14681758 -0.1605908 0.17797892
0.044912145 -0.26240677 -0.118106574 -0.29385352 0.07601284 0.59843737 -0.10179012 -0.06857318
-0.04372409 -0.18683262 0.044976514 0.13224998 -0.24665454 0.24131663 -0.26015228 0.5433807
0.080748364 -0.0570212 -0.3344071 -0.11735869 0.36436152 0.053788178 0.16398926 0.59502554
0.41071922 0.23912734 -0.052734625 -0.21672732 0.32671323 -0.24289319 0.034075573 0.008770365
-0.29899412 0.03859629 -0.102526985 -0.15063532 0.13078833 0.118468665 0.18522094 0.13725208
-0.21845742 0.3891851 -0.52659684 -0.092115894 0.24707434 -0.05338568 0.087623954 0.20111349
0.21902001 0.19489473 -0.24502385 -0.029101638 0.24877422 -0.045973178 0.21362384 0.06952614
0.1772103 0.17950156 0.1871456 0.26455757 0.52387303 -0.6169938 -0.16420834 0.5496363
0.19204623 -0.053632963 0.029286975 -0.036007922 0.03610331 0.14384997 0.17442743 0.038310297
-0.46814352 -0.15388498 -0.32910824 0.028120015 -0.13128506 -0.23112132 0.2790855 0.00799712
0.40994322 -0.12787357 -0.11797875 -0.08223146 -0.15501724 -0.048998456 0.07079801 -0.22425988
0.151148 0.03531318 -0.35078278 -0.112494364 0.0992874 0.57928747 -0.07666772 0.20765723
0.20078827 0.05403204 -0.023585035 -0.09750344 -0.19974765 -0.28874457 0.26373625 0.21396983
-0.13870603 -0.40802798 -0.0014900056 -0.62196815 0.04613763 -0.31673536 -0.18527381 0.05220959
